LearningPipeline/Checkpoint/TCResNet8_epoch_300_Adam/TFLITE_MODEL/TCResNet8_epoch_300_Adam.tflite (tflite, 425308 bytes, 24 tensors)

StatefulPartitionedCall/tc_res_net8/conv2d_17/Conv2D/ReadVariableOp f4 [16, 3, 1, 300]
0	0xbd45404e	-0.04815703
1	0xbd76b9a1	-0.060235623
2	0x3d80bb02	0.06285669
3	0xbcdba704	-0.026813038
4	0xbcaf1d05	-0.021376142
5	0x3cf38446	0.029726159
6	0x3d44c39d	0.048038114
7	0x3d805d1a	0.06267758
8	0x3d36c9b8	0.044625968
9	0xbcc5e6d6	-0.024157923
10	0xbd774059	-0.0603641
11	0x3c33d87c	0.010976907
12	0xbb193dd1	-0.0023382793
13	0xbcf894de	-0.030344423
14	0xbd27b0d6	-0.04094013
15	0x3d058d22	0.032605298
16	0xbcfdb0a4	-0.030968018
17	0x3d8a97ea	0.067672566
18	0x3c25d4d0	0.010121539
19	0xbd123edb	-0.035704475
20	0x3d42b0d3	0.047531914
21	0xbc3c81f5	-0.011505594
22	0xbd337a58	-0.043817848
23	0xbd523956	-0.05132421
24	0x3c1aa7c4	0.0094394125
25	0xbd8db61c	-0.069195
26	0xbd82fc05	-0.06395725
27	0xbd907def	-0.0705527
28	0xbd88e2a3	-0.066838525
29	0x3d68b43f	0.05681252
30	0x3da331f5	0.07968513
31	0x3ca445f3	0.020052886
32	0xbd06da81	-0.032923225
33	0xbc1b3500	-0.009473085
34	0x3c9da8ac	0.019245468
35	0x3c751ba2	0.014960201
36	0x3d4aeef1	0.04954428
37	0x3d0e613e	0.034760706
38	0xbd5f4ba8	-0.05451551
39	0x3d846739	0.06465001
40	0x3c50cc59	0.012744033
41	0xbd7d2a98	-0.0618082
42	0xbaeb0518	-0.0017930595
43	0xbd5fd9ad	-0.05465095
44	0xbcb9c843	-0.0226785
45	0xbc9f93be	-0.019479629
46	0x3d29b3e5	0.041431326
47	0xbd51c930	-0.051217258
48	0x3cb3ac8d	0.021932865
49	0x3d19c019	0.037536714
50	0xbca8d483	-0.020609146
51	0x3d2dcee2	0.042433627
52	0xbd2e9018	-0.042617887
53	0xbd30301a	-0.043014623
54	0x3d2e5b50	0.04256755
55	0x3c0e6a49	0.008692333
56	0x3d164852	0.036690064
57	0xbcff9f2c	-0.031203829
58	0x3c8d6e21	0.017264428
59	0x3d27ac6b	0.040935915
60	0xbd15fc10	-0.03661734
61	0x3c2f3a61	0.010695071
62	0xbd1fc584	-0.039006725
63	0x3d8a33d2	0.06748165
64	0xbc6efa3c	-0.014586028
65	0xbcf153b1	-0.029458852
66	0x3cd55dfb	0.02604579
67	0xbc4fd629	-0.012685337
68	0x3cd9fb91	0.026609214
69	0xbd0237ad	-0.031791378
70	0xbcb9c67e	-0.022677656
71	0xbcbb4af3	-0.022862887
72	0xbd5870f1	-0.052842084
73	0x3d2a56d3	0.04158671
74	0xbc58b605	-0.013226991
75	0x3b501606	0.0031751408
76	0xbd3ce284	-0.04611446
77	0x3d8494e9	0.06473715
78	0xbd812323	-0.0630553
79	0xbd7bdbc4	-0.06148888
80	0xbd497e3d	-0.049192656
81	0xbc80cc6e	-0.01572248
82	0xbd09f6c7	-0.03368261
83	0xbd1527c8	-0.03641489
84	0x3d8680f2	0.06567563
85	0xbd598b5f	-0.05311143
86	0x3c7892fc	0.015171763
87	0xbd9c9eeb	-0.07647499
88	0xbd9a4dda	-0.0753438
89	0x3d6bc3cf	0.057559785
90	0x3d65f31a	0.056140043
91	0x3d250d95	0.040296156
92	0xbd4bc3e4	-0.049747363
93	0x3c0de1ae	0.008659763
94	0xbc7c7e22	-0.015410932
95	0x3cebd0ed	0.028786147
96	0x3c6fe5d6	0.0146421995
97	0xbd4b3c1d	-0.049617875
98	0xbd0c8abd	-0.034312
99	0x3d4d9f4d	0.05020075
100	0xbd0abcee	-0.033871584
101	0xbd8cc41c	-0.068733424
102	0x3cb151cb	0.021645447
103	0x3d804794	0.062636524
104	0xbd146811	-0.036232058
105	0xbd7bba46	-0.06145694
106	0x3c52068f	0.0128189465
107	0x3d8645cd	0.06556282
108	0xbc2ed40e	-0.010670675
109	0xbb8ef710	-0.0043629482
110	0x3cf37d0b	0.029722711
111	0xbd828b8e	-0.06374274
112	0xbc1c3ced	-0.00953601
113	0xbd2acfaa	-0.04170195
114	0xbda28399	-0.079352565
115	0xbd290f57	-0.041274395
116	0xbd84cb98	-0.06484145
117	0xbc044bc1	-0.008074702
118	0x3be80513	0.007080683
119	0xbd8b19e4	-0.067920476
120	0x3c99ecad	0.018789614
121	0xbd68a7b8	-0.056800574
122	0xbcd8805b	-0.026428392
123	0xbdac2b5d	-0.084067084
124	0x3c93547b	0.01798462
125	0xbd824270	-0.06360328
126	0x3d628ced	0.05531018
127	0xbcb20e13	-0.021735227
128	0xbd4d7e61	-0.050169352
129	0x3c671d8e	0.0141061675
130	0xbd43e9b2	-0.04783029
131	0x3c91bad9	0.017789291
132	0x3d3316a7	0.043722775
133	0x3d0520e2	0.032502063
134	0xbd666a15	-0.05625351
135	0x3c832635	0.01600943
136	0xbce25a90	-0.027631074
137	0xbd528ab7	-0.05140182
138	0xbd666152	-0.056245156
139	0x3d3b490f	0.04572397
140	0xbc8b8ee2	-0.017035905
141	0xbd8e4070	-0.06945884
142	0x3d91c5db	0.07117816
143	0xbce3db1c	-0.02781444
144	0x3cc0bd66	0.023527812
145	0x3cf703ae	0.030153122
146	0x3a01179e	0.00049244787
147	0x3d61607e	0.055023663
148	0x3d7cbd8a	0.061704196
149	0x3a0bfc69	0.0005340041
150	0xbcc84f77	-0.024451954
151	0xbd38c0a6	-0.0451056
152	0x3cd8eadf	0.026479183
153	0xbcfe3908	-0.031033054
154	0xbcbede3e	-0.023299333
155	0xbd5f97a3	-0.05458797
156	0x3d4a21a2	0.04934848
157	0xbdac8d86	-0.08425431
158	0x3d834b20	0.06410813
159	0xbda1e541	-0.07905055
160	0xbc7052fe	-0.014668224
161	0x3d1fa2a4	0.038973466
162	0x3c8d8a86	0.017277967
163	0x3d187c09	0.037227664
164	0xbd905ed0	-0.07049334
165	0x3d35c40c	0.044376418
166	0x3cc27331	0.023736568
167	0x3d309573	0.043111276
168	0x3ce272cd	0.027642632
169	0xbd8b5a2a	-0.06804307
170	0x3bfb16c8	0.007662628
171	0xbd3fc580	-0.04681921
172	0xbd9f1bd0	-0.07768977
173	0x3d3e57ca	0.04647044
174	0xbd2c3369	-0.042041216
175	0x3cb81ee2	0.022475664
176	0xbd94fd4f	-0.07274877
177	0x3d055ef5	0.03256126
178	0xbd1df02a	-0.038559116
179	0xbd5d29a3	-0.053994786
180	0xbc3558c5	-0.011068528
181	0x3d00c60c	0.031438872
182	0xbd55ff39	-0.052245352
183	0xbce670f9	-0.028130041
184	0xbd9f0451	-0.07764495
185	0x3cc794d0	0.024362952
186	0xbd8b4cbd	-0.06801746
187	0xbdaaeeeb	-0.08346351
188	0xbd0c3f29	-0.03423992
189	0xbc99509a	-0.018715192
190	0x3c3d2e68	0.011546709
191	0x3d12240d	0.035678912
192	0x3d58cbc2	0.052928694
193	0x3d100cb7	0.035168376
194	0x3d60c78a	0.054877795
195	0x3d7ad2a1	0.061236028
196	0x3d4e2e89	0.050337348
197	0xbd9f7e52	-0.077877656
198	0xbc9d89a8	-0.019230679
199	0xbd6ff722	-0.058585294
200	0x3d565f1b	0.052336793
201	0xbc33ff3a	-0.010986144
202	0x3ccb00f7	0.024780734
203	0xbdac2b1d	-0.08406661
204	0xbba990d7	-0.005174737
205	0xbd77b439	-0.060474608
206	0x3d7d19b8	0.061792105
207	0x3ca960bc	0.02067601
208	0x3c47a979	0.0121864015
209	0xbc0da88e	-0.008646144
210	0x3d78630d	0.060641337
211	0xbd292bd4	-0.041301563
212	0xbd808783	-0.06275847
213	0x3d731646	0.059347413
214	0x3cfb520a	0.030678768
215	0x3cd0df50	0.025497109
216	0x3d8fb5f9	0.070171304
217	0x3d50b120	0.05095017
218	0x3d3a4463	0.045475375
219	0x3937e2ce	0.00017536731
220	0xbd1d939c	-0.03847085
221	0x3d0140f0	0.03155607
222	0xbc0c8360	-0.008576244
223	0x3c935b6b	0.017987927
224	0x3d82796b	0.06370815
225	0x3da46e6d	0.080288745
226	0xbcdad128	-0.026711062
227	0xbd10d9c2	-0.03536392
228	0xbd1822d3	-0.037142586
229	0x3d72a6be	0.05924105
230	0xbd7b108f	-0.06129509
231	0xbd345101	-0.044022564
232	0xbd0cfa92	-0.03441865
233	0xbd1eb97e	-0.038751118
234	0x3b656d4a	0.0035007768
235	0xbd485c21	-0.048915986
236	0xbd864503	-0.06556132
237	0x3d90bbb1	0.07067049
238	0x3d95af01	0.0730877
239	0x3c82a2b5	0.015946725
240	0x3c181c54	0.009284098
241	0xbd4e0812	-0.050300665
242	0xbccd4a68	-0.025059894
243	0x3d4960dc	0.049164638
244	0xbd6b5335	-0.0574524
245	0x3cb4e49b	0.022081664
246	0xbd379aad	-0.044825245
247	0x3d1eab77	0.03873774
248	0xbdac1775	-0.084029116
249	0x3d08b1d6	0.033372723
250	0xbc8127d7	-0.015766067
251	0x3c869af8	0.016431317
252	0x3d98d1f8	0.07461923
253	0x3ca40ce3	0.020025676
254	0x3d5a334c	0.053271577
255	0x3d90fc76	0.07079403

StatefulPartitionedCall/tc_res_net8/conv2d_17/Conv2D_bias f4 [16]
0	0x00000000	0.0
1	0x00000000	0.0
2	0x00000000	0.0
3	0x00000000	0.0
4	0x00000000	0.0
5	0x00000000	0.0
6	0x00000000	0.0
7	0x00000000	0.0
8	0x00000000	0.0
9	0x00000000	0.0
10	0x00000000	0.0
11	0x00000000	0.0
12	0x00000000	0.0
13	0x00000000	0.0
14	0x00000000	0.0
15	0x00000000	0.0

StatefulPartitionedCall/tc_res_net8/conv2d_18/Conv2D/ReadVariableOp f4 [24, 9, 1, 16]
0	0x3cb75ddd	0.022383625
1	0xbd7af890	-0.061272204
2	0x3cf98d6f	0.030462949
3	0xbe1c8075	-0.15283377
4	0xbd2e4458	-0.042545646
5	0xbd906a15	-0.070514835
6	0xbd1a5d7c	-0.03768681
7	0xbd0bd4b0	-0.03413838
8	0x3c693835	0.014234592
9	0xbc953d41	-0.018217685
10	0x3d314ddb	0.04328714
11	0x3d50fb31	0.051020805
12	0xbd045cfb	-0.032315236
13	0x3c879aed	0.016553367
14	0x3b378487	0.0028002576
15	0x3cf64611	0.030062707
16	0xbc530410	-0.012879387
17	0x3ddaffd6	0.10693328
18	0xbd4aa77b	-0.049476128
19	0x3c742eaa	0.014903704
20	0x3cd7c46f	0.026338784
21	0x3e21db0f	0.1580622
22	0x3d6179c3	0.05504776
23	0xbc6c6c52	-0.014430122
24	0xbd01c83d	-0.031685103
25	0x3d5b3daa	0.053525604
26	0x3db6f0ae	0.08932625
27	0x3e4f1bcd	0.20225449
28	0xbc9782a8	-0.018494919
29	0x3de60346	0.11231093
30	0xbcafc469	-0.02145596
31	0xbc90f6de	-0.01769584
32	0x3ca34186	0.019928705
33	0x3e36cb77	0.17851053
34	0x3e045494	0.12922889
35	0x3cabc859	0.020969557
36	0xbd89be57	-0.067257576
37	0xbd6606e2	-0.056158908
38	0x3d03450d	0.032048274
39	0x3da0201d	0.07818625
40	0x3e487816	0.19577059
41	0xbd9c18d4	-0.07621923
42	0x3e141bcc	0.14463729
43	0x3d4fc51a	0.05072508
44	0xbdaffb81	-0.085928924
45	0x3ddbd610	0.107341886
46	0x3d14ada2	0.0362984
47	0xbd3c8be6	-0.046031855
48	0xbc10b43c	-0.008832034
49	0x3d0759f2	0.033044763
50	0x3e0ba678	0.13637722
51	0xbe4168d0	-0.18887639
52	0x3de43031	0.11142004
53	0x3b730e08	0.003708722
54	0xbcfb5a43	-0.030682689
55	0xbdbe27e1	-0.0928495
56	0xbce35915	-0.027752439
57	0xbd96cf6d	-0.07363782
58	0x3df958e9	0.121751614
59	0x3e220c27	0.15824948
60	0x3d3d69e8	0.04624358
61	0xbce4390c	-0.027859233
62	0xbc001151	-0.007816629
63	0xbdee2651	-0.11628402
64	0x3df71507	0.120645575
65	0xbd198703	-0.037482273
66	0xbd82c1c4	-0.06384614
67	0x3d374687	0.044744994
68	0xbe415295	-0.18879159
69	0x3e01a738	0.12661445
70	0x3ce82165	0.028336236
71	0xbd195eeb	-0.037444036
72	0x3e0f0997	0.13968502
73	0xbc9c37b8	-0.019069538
74	0x3d487970	0.048943937
75	0x3dbe7e5c	0.09301445
76	0xbc412a54	-0.011789877
77	0x3ce40d24	0.027838297
78	0xbdd8d419	-0.105873294
79	0xbde45cc5	-0.11150507
80	0x3dfa0271	0.12207497
81	0xbd19d919	-0.037560556
82	0xbde8fd81	-0.11376477
83	0xbe47bfcf	-0.19506763
84	0x3bb637ed	0.005560866
85	0x3d002e0d	0.031293917
86	0x3db74b64	0.089499265
87	0xbe2d6429	-0.1693274
88	0x3df16b53	0.117880486
89	0x3dacd44b	0.08438929
90	0x3dfe3b72	0.12413682
91	0xbca57e6b	-0.020201882
92	0xbe329786	-0.17440614
93	0x3e024cb2	0.1272457
94	0x3c3a1296	0.01135697
95	0x3d292344	0.041293398
96	0x3d1ff3bb	0.0390508
97	0x3e30d1f3	0.1726759
98	0x3e0e9341	0.1392336
99	0x3de8cd86	0.113673255
100	0xbdfb14bf	-0.122598164
101	0xbdaec7bd	-0.08534191
102	0x3ca2c50a	0.019869346
103	0x3d69d4f2	0.057087846
104	0x3dfe1d4e	0.12407933
105	0xbd21b3b1	-0.039478008
106	0x3d653d42	0.055966623
107	0x3da6de38	0.081478536
108	0xbe076388	-0.13221562
109	0xbc085c66	-0.008322811
110	0x3e49e1ad	0.19714995
111	0x3c3aaaf0	0.011393294
112	0xbdab6d35	-0.08370439
113	0x3c57c3c7	0.013169236
114	0x3cea6a9a	0.028615285
115	0xbd208408	-0.039188415
116	0x3d8d8d90	0.069117665
117	0x3e1f30b9	0.1554593
118	0x3df6f31d	0.12058089
119	0x3e34696a	0.17618337
120	0x3d87123d	0.065952756
121	0x3ae139e0	0.0017183386
122	0x3c800915	0.01562933
123	0xbe27810c	-0.16357821
124	0xbb63f0b4	-0.0034780921
125	0xbd8369ab	-0.06416639
126	0x3d3656c9	0.04451636
127	0xbd9cc1f3	-0.076541804
128	0xbcb9da08	-0.022686973
129	0xbd183484	-0.037159458
130	0xbd42426a	-0.04742662
131	0xbcadcd6e	-0.02121612
132	0x3db44bc4	0.08803514
133	0x3d8a9e70	0.06768501
134	0xbe4b9f2f	-0.19884942
135	0x3df6210a	0.120180205
136	0x3d5bbafd	0.053645123
137	0xbe257f5a	-0.16161862
138	0x3d904895	0.07045094
139	0x3da8a5c7	0.082347445
140	0xbd24ccd7	-0.040234413
141	0x3db2c91b	0.08729764
142	0x3c8c0f51	0.017097147
143	0x3c21b33b	0.009869392
144	0xbd4621c6	-0.048372053
145	0x3e23b654	0.15987521
146	0xbec28a7b	-0.37996277
147	0xbd9d5e5d	-0.07684014
148	0x3d882c71	0.066491015
149	0xbc4c7fc8	-0.012481637
150	0x3d6b8ed2	0.05750925
151	0xbe3b3369	-0.1828133
152	0xbda59d16	-0.080866024
153	0xbd9f32a5	-0.077733316
154	0x3e260eac	0.16216534
155	0xbd07f940	-0.033196688
156	0xbe641bd4	-0.2227624
157	0xbdb7629e	-0.089543566
158	0xbd398527	-0.045293
159	0xbe6b1555	-0.22957356
160	0xbe2e1eb7	-0.17003904
161	0x3ed07ea7	0.40721628
162	0xbe4515f0	-0.1924665
163	0xbe33e3df	-0.17567395
164	0x3e97f664	0.2968017
165	0x3e7d6535	0.24745639
166	0xbde0b659	-0.1097228
167	0xbecfaa27	-0.40559503
168	0x3d11690d	0.035500575
169	0x3d3fa9bb	0.046792727
170	0xbe1cda1e	-0.1531758
171	0x3e7259e5	0.23667105
172	0xbe8ebd22	-0.27878672
173	0x3e859206	0.2608797
174	0xbe524fcc	-0.20538253
175	0x3e1bc967	0.15213548
176	0xbd80e8de	-0.06294416
177	0xbd8237d0	-0.06358302
178	0xbdd7a067	-0.10528641
179	0xbe1d8f2e	-0.1538665
180	0xbe865654	-0.26237738
181	0x3e2bdde0	0.16783857
182	0x3d747f55	0.059691746
183	0xbe0401a0	-0.12891245
184	0x3e4cc924	0.19998604
185	0x3da033e1	0.07822395
186	0xbd3a2a58	-0.04545054
187	0x3e44410e	0.19165441
188	0xbd2bda76	-0.041956387
189	0x3ea6d48f	0.32584044
190	0xbca8ceea	-0.020606477
191	0x3df2f5d2	0.11863293
192	0x3df7d7b5	0.1210169
193	0x3e1838cd	0.14865418
194	0x3e9295bd	0.28629866
195	0x3d8fe0b6	0.07025282
196	0x3d93a5da	0.07209368
197	0x3ebac1bb	0.3647593
198	0x3d7674a3	0.060169827
199	0x3eca00f1	0.39453843
200	0x3eab5d5e	0.3346967
201	0xbe3047cc	-0.17214888
202	0xbd7b7375	-0.061389405
203	0xbdb93293	-0.090428494
204	0xbea9078d	-0.33013573
205	0x3ce61f09	0.02809097
206	0x3df2ac35	0.11849252
207	0xbec61d58	-0.38694263
208	0x3e043706	0.12911615
209	0xbe92fb0e	-0.28707165
210	0x3ee02f98	0.4378631
211	0x3e7b46b9	0.24538697
212	0xbec51b8c	-0.3849758
213	0x3e384911	0.17996623
214	0x3dcd65a6	0.100291535
215	0x3d9e4270	0.07727516
216	0xbea57fa6	-0.3232395
217	0x3e1fda11	0.1561053
218	0x3ed863ee	0.4226374
219	0xbe9c4ff2	-0.30529743
220	0xbd8997f3	-0.06718435
221	0xbd922336	-0.07135622
222	0x3e84171f	0.2579889
223	0x3ec88b4b	0.39168772
224	0x3e689313	0.22712354
225	0x3dd9030f	0.105962865
226	0xbcb93b42	-0.022611264
227	0x3d5367db	0.051612716
228	0xbd9b818d	-0.07593069
229	0xbd92b576	-0.07163517
230	0xbd918760	-0.07105899
231	0xbe6a4075	-0.22876151
232	0xbd03e5bf	-0.032201525
233	0xbe95c72d	-0.29253522
234	0xbd1e12e8	-0.03859225
235	0x3cece39a	0.028917123
236	0xbe6a4eba	-0.22881594
237	0x3e42b6be	0.19015023
238	0xbe867e7c	-0.26268375
239	0xbcff2798	-0.03114681
240	0xbd8578c9	-0.065171786
241	0xbe1e162b	-0.15438144
242	0xbd34d1cc	-0.04414539
243	0xbe3b6037	-0.18298422
244	0x3e539be3	0.20664935
245	0xbe84e583	-0.25956354
246	0x3d041735	0.032248694
247	0x3c837d2c	0.016050898
248	0xbe5d7e88	-0.21630299
249	0xbe305c75	-0.1722277
250	0xbd444ade	-0.04792296
251	0x3debd4b4	0.11515179
252	0x3e146de7	0.1449505
253	0xbd8e6e4e	-0.06954633
254	0xbe19a9d6	-0.15006194
255	0x3e82ea4d	0.25569382

StatefulPartitionedCall/tc_res_net8/conv2d_18/Conv2D_bias f4 [24]
0	0xbfdb14d2	-1.7115729
1	0x3e5b9c34	0.21446306
2	0xbfdc8fab	-1.7231344
3	0x3f8d32ca	1.1031125
4	0xbdf2c48d	-0.11853895
5	0x3f1efff2	0.6210929
6	0x3fa1054f	1.2579745
7	0x3f03622d	0.5132168
8	0x3fd3f788	1.6559916
9	0xbe9e64b3	-0.30936202
10	0xbfa900df	-1.3203391
11	0xbe29b291	-0.16572024
12	0xbfb11cc9	-1.383691
13	0x3d7d18fd	0.06179141
14	0xbfd07a35	-1.6287295
15	0x3f2854df	0.65754503
16	0xbfdf4bef	-1.7445048
17	0xbfe41136	-1.7817752
18	0x3eafd714	0.3434378
19	0xbd79bd01	-0.060971264
20	0xbfc837cf	-1.5642031
21	0xbf963bbf	-1.1736983
22	0xbef8dbae	-0.48605102
23	0x3fdceab3	1.7259125

StatefulPartitionedCall/tc_res_net8/conv2d_19/Conv2D/ReadVariableOp f4 [24, 9, 1, 24]
0	0xbe40e306	-0.18836603
1	0x3da19125	0.07889012
2	0x3db4eeb9	0.08834595
3	0xbe5403e7	-0.20704614
4	0x3de8f941	0.113756664
5	0xbdf42f8e	-0.11923133
6	0x3dd0b982	0.10191633
7	0xbd6f040f	-0.05835348
8	0x3e25a228	0.16175139
9	0x3dc14557	0.09437054
10	0x3d75fcd2	0.06005556
11	0x3dfae37c	0.122504205
12	0x3c97092f	0.018436996
13	0xbdb44e19	-0.088039584
14	0x3e6ce368	0.23133624
15	0x3d1c6029	0.038177643
16	0x3cb81391	0.022470267
17	0xbe251ed3	-0.1612504
18	0x3d95720b	0.072971426
19	0xbd2891f7	-0.041154828
20	0x3dc1533f	0.09439706
21	0xbdc34ed2	-0.09536518
22	0x3d90272b	0.07038721
23	0xbe5158a8	-0.20443976
24	0xbe817c61	-0.25290206
25	0x3d2da71a	0.04239569
26	0x3d2ebe9c	0.042662248
27	0x3e0ecf6a	0.1394631
28	0x3bd0c150	0.006370701
29	0x3e7d43df	0.24732922
30	0x3e1ae52d	0.15126486
31	0xbe3a6c47	-0.18205367
32	0xbb2238e9	-0.002475316
33	0x3e0c21c4	0.13684756
34	0x3d9aea21	0.07564188
35	0xbe282a7c	-0.16422457
36	0x3e5fde1e	0.21862075
37	0xbe0868dc	-0.1332125
38	0x3e006c2e	0.12541267
39	0x3e4b668d	0.19863339
40	0xbd82b9f9	-0.06383128
41	0x3cd6c1ad	0.026215399
42	0xbda6ad67	-0.081385426
43	0xbe1871b9	-0.14887132
44	0xbe93daac	-0.2887777
45	0x3e202b10	0.15641427
46	0x3dcdd6c9	0.10050733
47	0x3d51d1c9	0.051225457
48	0xbd47a986	-0.048745655
49	0x3e7d7729	0.24752487
50	0xbd423cd6	-0.0474213
51	0x3df83fb1	0.12121523
52	0x3d94c5d9	0.07264299
53	0x3d794297	0.06085452
54	0xbd9e4fe4	-0.07730082
55	0xbe3c5425	-0.18391474
56	0xbca89c67	-0.020582391
57	0x3e3862aa	0.18006387
58	0xbe4e558c	-0.20149821
59	0x3e592829	0.21206726
60	0x3e694a5e	0.22782275
61	0xbde00521	-0.10938478
62	0x3e6942ea	0.22779432
63	0x3cbea26f	0.023270814
64	0x3d502a56	0.050821625
65	0x3ddfb505	0.109231986
66	0xbe14887f	-0.14505194
67	0x3e18e983	0.14932828
68	0xbda0379b	-0.07823106
69	0xbe84512f	-0.25843188
70	0x3cb8b1b6	0.022545677
71	0xbe4b588b	-0.19857995
72	0xbe29537b	-0.16535752
73	0xbc92ebab	-0.01793464
74	0x3e09fdcb	0.1347572
75	0x3e0423cc	0.1290428
76	0x3d9d0136	0.076662466
77	0xbd9e016c	-0.07715115
78	0x3e005f8d	0.1253645
79	0x3d859cf3	0.06524076
80	0x3e73ce91	0.23809268
81	0x3e7e1fa2	0.24816754
82	0xbd831596	-0.064006016
83	0xbe322fff	-0.17401122
84	0xbe0054b2	-0.12532309
85	0x3d401ff1	0.04690546
86	0xbde1ba16	-0.11021821
87	0xbdeba0fb	-0.11505314
88	0x3d48bb73	0.04900689
89	0xbe83aca6	-0.25717658
90	0xbd7b1ae1	-0.06130493
91	0xbb4b5c6d	-0.0031030432
92	0x3c05332b	0.008129875
93	0xbd44efb3	-0.048080157
94	0xbd3f0e2c	-0.046644375
95	0x3d92c7b4	0.071669966
96	0xbdd6f709	-0.10496337
97	0x3e5fce26	0.21855983
98	0x3e617456	0.22017035
99	0x3e7b03eb	0.24513213
100	0xbe511043	-0.2041636
101	0xbe7edd06	-0.24889001
102	0x3daf4eb8	0.08559936
103	0x3d0508b9	0.03247902
104	0x3e769a56	0.24082312
105	0x3d162b67	0.036662485
106	0xbde5cce8	-0.112207234
107	0x3cf239b1	0.029568525
108	0x3d7e2c04	0.062053695
109	0xbd896b17	-0.06709879
110	0x3e9360e6	0.28784865
111	0x3c6129e5	0.013742899
112	0x3e6f98a1	0.23398067
113	0x3c3d5f65	0.011558388
114	0xbd87faac	-0.06639609
115	0x3e456bbc	0.19279379
116	0xbe857ecd	-0.26073304
117	0xbdfc8965	-0.123308934
118	0xbda59032	-0.08084144
119	0x3d5b1bac	0.053493187
120	0x3cfc3e86	0.030791532
121	0x3cc534dc	0.024073057
122	0x3e752869	0.23941197
123	0xbd053156	-0.032517754
124	0xbe647667	-0.22310792
125	0xbd989da3	-0.07451942
126	0xbe8dc578	-0.2768972
127	0x3e0a8f94	0.13531333
128	0xbe645c83	-0.22300915
129	0x3e5874e8	0.21138346
130	0xbe057d4a	-0.13036075
131	0x3d13e4db	0.036106925
132	0x3dbbb3d4	0.09165159
133	0x3de97340	0.11398935
134	0xbe8c4292	-0.2739454
135	0x3e911f2f	0.28344104
136	0x3d974962	0.073870435
137	0xbdf7c213	-0.120975636
138	0xbe47dea2	-0.19518521
139	0x3d2a2583	0.04153968
140	0xbd25c58b	-0.040471595
141	0xbde3ea39	-0.11128659
142	0x3d963c29	0.073356934
143	0x3dd0b95a	0.10191603
144	0x3d3c13df	0.045917388
145	0xbcd7a0a7	-0.026321722
146	0x3e253fbd	0.16137595
147	0xbd693f73	-0.056945276
148	0x3dff6f7f	0.12472438
149	0xbd1f0434	-0.038822368
150	0xbdc550c9	-0.09634549
151	0x3dc93ed6	0.09826438
152	0x3d049cca	0.03237609
153	0x3db1609f	0.08661007
154	0xbcb24df3	-0.021765685
155	0x3df5e9d2	0.12007488
156	0xbe7ba904	-0.24576193
157	0xbe58b87c	-0.21164125
158	0xbe17170b	-0.14754884
159	0xbda4ea9a	-0.08052559
160	0x3dda32de	0.106542334
161	0x3d86f839	0.065903135
162	0x3cbcf8c9	0.023067849
163	0xbe557496	-0.20845255
164	0xbdbd6ee0	-0.09249663
165	0xbdaa2bb3	-0.08309116
166	0x3d7cc7af	0.06171387
167	0x3d6ce243	0.057832967
168	0x3cdf916c	0.027291022
169	0xbd429006	-0.047500633
170	0x3e5eee1c	0.21770519
171	0xbd17718a	-0.036973514
172	0x3dc7a0bc	0.097474545
173	0xbdecbd8c	-0.11559591
174	0x3e1c6c1e	0.15275618
175	0x3d8d76c4	0.06907418
176	0x3e40d213	0.18830137
177	0x3d63991f	0.05556595
178	0xbde9acb5	-0.114098944
179	0xbe351054	-0.1768201
180	0xbcf8bd44	-0.030363686
181	0xbe7a8dea	-0.24468198
182	0xbddabf9f	-0.1068108
183	0xbe3ab86a	-0.18234411
184	0xbdebda03	-0.11516192
185	0x3d70d092	0.05879266
186	0xbdc8011e	-0.09765838
187	0xbdf2d074	-0.118561655
188	0xbe5e470e	-0.21706793
189	0xbdfaf435	-0.1225361
190	0x3e22dc62	0.15904382
191	0x3d53ead6	0.05173763
192	0x3e4e6ac3	0.20157914
193	0x3d849bdf	0.064750426
194	0x3e8cd61e	0.27507108
195	0xbdb72bf5	-0.08943931
196	0xbd72b2da	-0.059252597
197	0x3d405364	0.046954527
198	0xbd99ea43	-0.07515385
199	0x3cede9c2	0.029042128
200	0x3d6fca9d	0.058542836
201	0xbe68091d	-0.22659726
202	0xbda66e8c	-0.08126554
203	0x3d17ff18	0.03710851
204	0x3b241526	0.002503702
205	0xbe3419d1	-0.17587973
206	0xbd55d4b3	-0.0522048
207	0x3bcff506	0.0063463477
208	0x3e462d66	0.19353256
209	0x3dc6feb0	0.097165465
210	0xbe2ba49b	-0.16762011
211	0x3be37ec6	0.006942603
212	0xbe674acf	-0.22587131
213	0x3e279487	0.16365252
214	0xbe3e1012	-0.18560818
215	0x3e0373b0	0.128371
216	0xbe831426	-0.2560131
217	0xbe8696bb	-0.26286873
218	0x3d69427f	0.05694818
219	0x3e4370ad	0.19085951
220	0x3dd24455	0.102669396
221	0x3e3a55b8	0.18196762
222	0xbe1674e4	-0.14693028
223	0xbc52b472	-0.012860404
224	0xbde13a3f	-0.10997438
225	0x3cfef981	0.031124832
226	0xbdb37928	-0.08763343
227	0x3db2a43c	0.087227315
228	0xbdb7749f	-0.089577906
229	0xbe0dcd07	-0.13847743
230	0xbe0ca6f6	-0.13735566
231	0x3b123c06	0.0022313609
232	0xbd2c4cc6	-0.042065404
233	0x3e98082d	0.29693738
234	0xbe7a707d	-0.24456973
235	0xbe5fdebd	-0.21862312
236	0xbe5d156b	-0.21590202
237	0xbcdf6cdc	-0.027273588
238	0x3dc5d16b	0.09659084
239	0xbddcad1e	-0.10775207
240	0x3e18f3c7	0.14936744
241	0xbe7d3f9a	-0.24731293
242	0x3e0b7d30	0.13621974
243	0x3cf40089	0.029785411
244	0x3e920079	0.28515986
245	0xbd59d91f	-0.05318558
246	0x3e877de2	0.26463228
247	0xbdb10d60	-0.08645129
248	0xbdc4a050	-0.0960089
249	0x3d22edfc	0.03977774
250	0x3df66064	0.12030104
251	0x3e343f67	0.17602311
252	0xbe1af924	-0.15134102
253	0x3d1ef2b1	0.038805667
254	0x3e06068e	0.13088438
255	0x3e86288b	0.26202807

StatefulPartitionedCall/tc_res_net8/conv2d_19/Conv2D_bias f4 [24]
0	0xbe2a8587	-0.16652499
1	0xbc979700	-0.01850462
2	0x3ed1d6af	0.40984103
3	0x3f1a079d	0.60167867
4	0xbd051882	-0.032494076
5	0x3ed42c83	0.4144021
6	0x3ee1e07c	0.4411658
7	0xbf179713	-0.59214896
8	0xbea79b07	-0.32735464
9	0xbf14e708	-0.58165026
10	0xbd46aebd	-0.048506487
11	0x3f707797	0.9393248
12	0x3fb1e71c	1.3898654
13	0xbe034854	-0.1282056
14	0x3fc4c706	1.5373237
15	0xbf4f4821	-0.80969435
16	0xbf9b3189	-1.2124492
17	0xbea2b19c	-0.3177613
18	0x3f664690	0.8995142
19	0x3e531f82	0.20617488
20	0x3f780d60	0.9689541
21	0xbed051a2	-0.4068728
22	0x3f2aa29a	0.6665436
23	0x3d16b60e	0.036794715

StatefulPartitionedCall/tc_res_net8/conv2d_20/Conv2D/ReadVariableOp f4 [24, 1, 1, 16]
0	0xbee674d9	-0.45011023
1	0xbee81e09	-0.45335415
2	0xbee4099e	-0.44538587
3	0xbf7b90a3	-0.98267573
4	0xbf547f89	-0.83007103
5	0xbda74448	-0.081673205
6	0xbeece4ad	-0.46268216
7	0xbdac3490	-0.08408463
8	0x3e718a26	0.23587856
9	0xbf066ce8	-0.5250993
10	0xbed2e0ad	-0.4118704
11	0x3f0ac31a	0.5420395
12	0x3f5e2766	0.8677887
13	0x3d9d6827	0.07685881
14	0xbeb2be36	-0.34910744
15	0x3eb0404e	0.3442406
16	0x3d8efe3e	0.069820866
17	0x3e89fcd7	0.26950714
18	0x3f02d676	0.5110849
19	0x3e3b0b6f	0.1826608
20	0xbe47c681	-0.19509317
21	0x3d647ff4	0.055786088
22	0x3e717ade	0.23582026
23	0xbca39649	-0.019969122
24	0x3eab10a6	0.3341114
25	0x3cb5c6f8	0.022189602
26	0xbecc8a80	-0.39949417
27	0x3cc3d353	0.023904478
28	0xbe69808a	-0.2280294
29	0xbf2194ff	-0.63117975
30	0x3eb066ff	0.3445358
31	0xbe483cc2	-0.19554427
32	0x3e3bb3d2	0.18330315
33	0xbe2a3706	-0.16622552
34	0xbd7d2707	-0.061804798
35	0xbe17ccec	-0.14824265
36	0x3f05bcdf	0.5224132
37	0xbed801ae	-0.42188781
38	0xbe9db6bb	-0.30803475
39	0xbbd936a1	-0.0066288267
40	0xbd9c4ac4	-0.07631448
41	0x3e6c97af	0.23104738
42	0xbecaf3f5	-0.3963925
43	0x3dcc2ea7	0.09969836
44	0x3e8a0c96	0.26962727
45	0x3e23f3ab	0.1601092
46	0x3cfbf22f	0.03075513
47	0xbe29445e	-0.16529986
48	0x3ebbadd3	0.36656055
49	0xbf14d6a3	-0.5814001
50	0x3e9a5ef3	0.30150566
51	0x3ebd848a	0.37015182
52	0x3dc9ec33	0.098595046
53	0xbe18b6fc	-0.14913553
54	0x3f1933cf	0.5984468
55	0xbe7a6680	-0.24453163
56	0xbecb5a82	-0.3971749
57	0x3e192318	0.14954793
58	0xbe4cffbd	-0.20019431
59	0x3e1149ce	0.1418831
60	0xbd7e7c03	-0.062129986
61	0x3e59324f	0.21210597
62	0x3eb3cd0b	0.35117373
63	0x3dc0da12	0.094165936
64	0xbf89cea7	-1.076619
65	0xbe437da9	-0.19090904
66	0x3f405120	0.75123787
67	0xbdd903aa	-0.10596402
68	0x3e665e00	0.22496796
69	0xbf57db57	-0.8431906
70	0xbdcd5ce9	-0.10027487
71	0x3f9de0a3	1.2334179
72	0x3f195f7e	0.59911335
73	0xbf40ebdc	-0.7535989
74	0xbdc749ee	-0.09730898
75	0xbda6cf01	-0.081449516
76	0x3f582f6b	0.84447354
77	0xbee27b6e	-0.44234794
78	0xbf2f0d35	-0.6837953
79	0x3f60410f	0.8759927
80	0xbe360e63	-0.17778926
81	0xbee103f7	-0.43948337
82	0xbf41543d	-0.7551916
83	0x3f1affc1	0.605465
84	0xbed6e5bd	-0.4197215
85	0xbf736018	-0.950685
86	0x3fd8a837	1.6926335
87	0x3f0dd24f	0.5539903
88	0x3fc6464d	1.5490204
89	0xbf5df627	-0.86703724
90	0x3f8e6ae3	1.1126369
91	0x3f8e84c3	1.1134266
92	0xbefd5654	-0.49479926
93	0x3f2913ce	0.66045845
94	0xbd6fd581	-0.058553223
95	0x3e6e07d6	0.23245177
96	0xbd896d72	-0.06710328
97	0xbe8a077c	-0.26958835
98	0x3ee83d6e	0.45359367
99	0xbda9caed	-0.08290658
100	0xbe9aeb1e	-0.30257505
101	0x3dbe972b	0.09306177
102	0x3dba9481	0.09110356
103	0x3dc892b6	0.09793608
104	0xbe4b1f8a	-0.1983625
105	0x3eda80f9	0.42676523
106	0x3f156542	0.5835763
107	0xbdce22e1	-0.100652464
108	0x3df368d9	0.118852325
109	0xbd8634d9	-0.06553049
110	0xbe9a2c5c	-0.3011197
111	0x3f15ea0e	0.58560264
112	0xbe2d0c53	-0.16899233
113	0x3d975a62	0.07390286
114	0xbe7194a4	-0.23591858
115	0x3e179d79	0.14806165
116	0x3efd9712	0.4952932
117	0xbc834531	-0.016024204
118	0xbebbd7fd	-0.36688223
119	0xbe8e2789	-0.27764538
120	0xbf019ab6	-0.50626695
121	0x3e8e0ae7	0.27742693
122	0x3f0d8b89	0.5529104
123	0x3e66b0ee	0.22528431
124	0x3a19a94f	0.0005861716
125	0xbbfcb3df	-0.007711872
126	0xbe563935	-0.2092026
127	0x3c98a1a6	0.018631767
128	0x3e802f6b	0.25036177
129	0xbda7f395	-0.082007565
130	0xbf03fedf	-0.5156078
131	0xbf0f280e	-0.55920494
132	0x3e493576	0.196493
133	0x3db351ae	0.087558135
134	0xbe81685d	-0.25274935
135	0x3eaa1720	0.33220768
136	0xbd3b3ca2	-0.04571212
137	0x3e5d1b06	0.2159234
138	0x3e4270ee	0.18988392
139	0xbdba03a6	-0.09082727
140	0xbdb3095d	-0.0874202
141	0xbdfe379e	-0.12412952
142	0xbf0259ec	-0.5091846
143	0x3cb12a0b	0.021626493
144	0xbe4120bb	-0.18860142
145	0xbe03e938	-0.12881935
146	0xbca928bf	-0.020649312
147	0xbd23dc34	-0.040004924
148	0xbe8dbec1	-0.27684596
149	0x3e89a209	0.26881436
150	0xbe95f300	-0.29286957
151	0xbda20ad1	-0.07912219
152	0xbda7367d	-0.0816469
153	0x3e2b1dce	0.16710588
154	0x3ef16016	0.4714362
155	0x3e563fb2	0.20922735
156	0xbe4bc8f9	-0.19900884
157	0xbdd43fca	-0.10363729
158	0x3e864fa1	0.26232627
159	0x3d8844f0	0.06653774
160	0xbde06cce	-0.10958253
161	0xbb2ec064	-0.0026664967
162	0xbf63f16e	-0.8904027
163	0x3ecc807f	0.39941785
164	0x3e3e7231	0.18598248
165	0xbcdf6481	-0.027269604
166	0x3ea71618	0.32634044
167	0x3ec6b1af	0.38807437
168	0x3ea779b1	0.3271003
169	0x3e490171	0.19629456
170	0x3ef97149	0.48719242
171	0x3e387fd7	0.18017517
172	0x3f4d1a76	0.801185
173	0x3efce8d2	0.49396378
174	0xbf10db35	-0.56584483
175	0xbde94c50	-0.113915086
176	0x3ecc856c	0.39945543
177	0x3f31484c	0.6925094
178	0xbdbb0621	-0.09132028
179	0xbef092d7	-0.4698703
180	0x3ecff92c	0.4061979
181	0xbe2677d7	-0.16256653
182	0xbe4248f2	-0.18973139
183	0xbf2d8867	-0.6778626
184	0x3e3a6dc3	0.18205933
185	0xbeb0bb55	-0.34517923
186	0xbeb2f72a	-0.34954196
187	0x3f86c750	1.0529575
188	0x3d2d871b	0.042365175
189	0x3f514a31	0.8175383
190	0x3e4b7e3c	0.19872373
191	0xbecfcb61	-0.40584853
192	0xbea4081a	-0.3203743
193	0x3e81d90a	0.253609
194	0xbfa23764	-1.2673154
195	0xbf2a0669	-0.6641603
196	0x3fa0adfc	1.2553096
197	0xbea945df	-0.3306112
198	0xbe8d0bcd	-0.27548066
199	0x3f7b76cd	0.9822815
200	0x3e3c4d0b	0.18388765
201	0xbf7a5a33	-0.97793883
202	0xbdc651f9	-0.09683604
203	0xbf122e73	-0.57102126
204	0xbecd566e	-0.40105003
205	0x3e9b8512	0.30374962
206	0xbf8b60fa	-1.088897
207	0x3f23b200	0.6394348
208	0x3e934c44	0.28769124
209	0xbf5d2196	-0.86379373
210	0x3f6b5e36	0.9194063
211	0xbf877f9e	-1.0585821
212	0x3f05c468	0.5225282
213	0x3f3d7db4	0.7401993
214	0xbebeab4a	-0.37240058
215	0xbfa98e48	-1.3246546
216	0x3f6e2eda	0.9304024
217	0xbf1a386f	-0.6024236
218	0x3f3bb720	0.733263
219	0xbf82c284	-1.0215611
220	0x3f5065d6	0.8140539
221	0xbf4c644a	-0.7984053
222	0x3f117741	0.5682259
223	0x3ec71987	0.38886663
224	0xbeb7be3d	-0.35887328
225	0x3ec0463c	0.37553585
226	0xbe740680	-0.23830605
227	0xbeb8c6f9	-0.36089304
228	0x3debaf87	0.115080886
229	0x3e7252a6	0.2366434
230	0xbf042a11	-0.5162669
231	0x3f00f3ae	0.50371826
232	0x3f1e1d58	0.61763525
233	0x3dc23bcc	0.094840616
234	0xbf0c4b6b	-0.5480258
235	0x3f28ad85	0.6588977
236	0x3e615377	0.22004496
237	0xbebcd0df	-0.36878106
238	0x3f35a9da	0.709623
239	0xbeaa3c5f	-0.33249184
240	0x3d92b09d	0.071625926
241	0xbdb1b243	-0.08676579
242	0xbd20360e	-0.03911405
243	0xbdc74905	-0.09730724
244	0x3c0789cf	0.008272602
245	0xbf019795	-0.5062192
246	0x3e21358b	0.15743081
247	0x3d46fae4	0.04857911
248	0x3e15e674	0.14638692
249	0xbe17f030	-0.14837718
250	0x3cc723e0	0.024309099
251	0xbebce35e	-0.36892217
252	0x3eae4538	0.34037185
253	0x3d8c9cf5	0.06865875
254	0xbe405c8e	-0.18785307
255	0xbe33245e	-0.17494342

StatefulPartitionedCall/tc_res_net8/conv2d_20/Conv2D_bias f4 [24]
0	0x3f337b82	0.7011033
1	0xbf6acfbc	-0.9172323
2	0x3fbe79e1	1.4880944
3	0x3fae3b49	1.3611842
4	0x3f6c2ef3	0.9225914
5	0xbf349529	-0.705401
6	0xbfcfbdfe	-1.6229856
7	0xbfa891b2	-1.3169463
8	0xbfc75936	-1.55741
9	0xbfdd65ea	-1.7296727
10	0x3f857ef1	1.0429364
11	0x3f6a8bd1	0.9161959
12	0xbc9a4f26	-0.018836569
13	0xbdcff6b4	-0.10154477
14	0xbfa793c6	-1.3091972
15	0x3fde70ce	1.7378175
16	0xbe0e8bf0	-0.1392057
17	0xbf99ecc4	-1.202538
18	0x3f195372	0.5989295
19	0xbea776f4	-0.32707942
20	0xbf99380a	-1.1970227
21	0xbee7da72	-0.45283848
22	0x3f937d83	1.1522678
23	0x3e5dfef4	0.21679288

StatefulPartitionedCall/tc_res_net8/conv2d_21/Conv2D/ReadVariableOp f4 [32, 9, 1, 48]
0	0x3d3c049f	0.045902845
1	0x3dde3bad	0.10851226
2	0xbd8bb91a	-0.06822415
3	0xbd6cec62	-0.05784262
4	0xbd83e7ff	-0.06440734
5	0x3c54cc00	0.0129880905
6	0xbd158261	-0.036501292
7	0x3d036185	0.032075424
8	0xbc99adb0	-0.018759578
9	0x3d6c2c16	0.05765923
10	0xbd9331d5	-0.07187239
11	0x3a454662	0.00075254415
12	0xbe07474d	-0.13210793
13	0xbcfef182	-0.03112102
14	0xbd84475d	-0.06458924
15	0xbdb3bbee	-0.08776079
16	0xbca87f8a	-0.020568628
17	0x3de0302b	0.10946687
18	0x3d6db511	0.058034007
19	0xbbded0c9	-0.0067997915
20	0xbd8e0d7a	-0.06936164
21	0x3da931e2	0.082614675
22	0xbceb6760	-0.028735816
23	0x3e0e9f37	0.13927923
24	0xbdb6c3a0	-0.08924031
25	0xba8e3c59	-0.0010851725
26	0x3b2a694d	0.0026002706
27	0xbc2df2ef	-0.010617002
28	0xbd8b8b56	-0.068136856
29	0xbc4c2428	-0.012459792
30	0x3dec49a9	0.11537487
31	0x3da10876	0.07862942
32	0xbdc0d8fc	-0.094163865
33	0x3e16afc5	0.14715488
34	0x3d88f151	0.066866525
35	0x3d14aef9	0.03629968
36	0x3cf93a71	0.030423375
37	0x3c32a775	0.010904183
38	0x3cbc3c84	0.022978075
39	0xbd5415fa	-0.05177877
40	0xbd0dfa5f	-0.0346626
41	0x3b21fea2	0.0024718423
42	0x3d6d14dd	0.057881225
43	0xbd1abfe2	-0.03778065
44	0xbdd05572	-0.101725474
45	0x3d44ed94	0.048078135
46	0x3cc2492c	0.023716532
47	0xbd2b20cf	-0.041779336
48	0x3d5deb4b	0.05417947
49	0x39b99e74	0.00035404006
50	0x3d7de573	0.061986398
51	0xbd204449	-0.03912762
52	0x3c2fad58	0.010722481
53	0x3cf620c0	0.030044913
54	0xbdb728c5	-0.08943323
55	0x3d96ef9a	0.07369919
56	0xbcb78ef2	-0.022407029
57	0xbd3fd2b8	-0.046831816
58	0x3d77132f	0.06032103
59	0xbdaaf331	-0.08347166
60	0xbe061338	-0.13093269
61	0xbd9f43f0	-0.0777663
62	0x3d78fcd6	0.060788
63	0x3dde4370	0.108527064
64	0x3dd8530d	0.10562716
65	0x3c911235	0.017708877
66	0x3d475de7	0.048673537
67	0xbdf1213e	-0.117739186
68	0xbac07a16	-0.0014684822
69	0x3cb1799d	0.021664435
70	0xbc5f0aec	-0.013613444
71	0xbdd82a6f	-0.105549686
72	0xbd99897b	-0.074969254
73	0xbdbe2ea9	-0.092862435
74	0x3e0e7265	0.13910826
75	0x3cd6a611	0.026202234
76	0xbb5083d1	-0.003181685
77	0x3d3d8550	0.046269715
78	0xbd0480c5	-0.032349367
79	0xbc13ea7c	-0.009028073
80	0xbd0cbbd6	-0.03435882
81	0x3c8e5d88	0.017378584
82	0xbd3396e5	-0.043845076
83	0x3dc88d17	0.09792536
84	0xbd81aeb0	-0.06332147
85	0xbd0253a8	-0.031818062
86	0x3d5370a6	0.0516211
87	0xbd68996c	-0.05678694
88	0xbc96443f	-0.01834309
89	0xbce42c98	-0.027853295
90	0xbd0d446d	-0.034489084
91	0x3c0ef850	0.0087261945
92	0xbe02c4e9	-0.12770428
93	0xbca76b18	-0.020436808
94	0x3d02d8da	0.031945087
95	0x3d36bade	0.044611804
96	0x3e0cdcf7	0.13756166
97	0x3ca1dcd8	0.019758627
98	0x3d5b4bbe	0.05353903
99	0x3dcc94ad	0.09989295
100	0x3dbf3cca	0.093377665
101	0x3cfcabe8	0.03084369
102	0xbbb3f5e1	-0.0054919575
103	0xbd924d91	-0.07143701
104	0x3da4d783	0.08048918
105	0xbcfd4f9b	-0.030921748
106	0x3cb27471	0.02178404
107	0xbd8ea62c	-0.069652885
108	0x3c7d8e3b	0.015475805
109	0xbd128d85	-0.035779495
110	0x3bde3955	0.006781737
111	0x3dd09353	0.1018435
112	0x3d9aafa2	0.075530306
113	0xbd319c43	-0.043361913
114	0xbd411382	-0.047137745
115	0xbcc127c3	-0.02357853
116	0xbd3c5bdb	-0.045986038
117	0xbb2cdbbe	-0.0026376094
118	0x3d4edb3f	0.050502058
119	0xbbf4b4e9	-0.0074678552
120	0x3daf6896	0.0856487
121	0xbdb9f9b8	-0.09080833
122	0xbc7797da	-0.015111888
123	0xbdd28c69	-0.10280687
124	0xbd77c33c	-0.060488924
125	0xbdfc37ba	-0.123153165
126	0xbc813031	-0.01577005
127	0x3d95d7ad	0.073165275
128	0x3ce6e3d9	0.028184818
129	0xbc5a8662	-0.013337703
130	0x3c84a273	0.016190743
131	0x3d4a9181	0.04945517
132	0xbd9ad0ec	-0.0755938
133	0xbd9d826f	-0.07690894
134	0x3d925b65	0.071463384
135	0xbd23e2d0	-0.040011227
136	0xbd939eba	-0.07208009
137	0x3d81c998	0.06337279
138	0x3c6a157f	0.014287352
139	0x3df8cfcc	0.12149009
140	0xbd6300e2	-0.055420764
141	0x3d0afc78	0.03393218
142	0xbc9362c9	-0.01799144
143	0xbd816baf	-0.06319367
144	0xbd63c6cd	-0.055609513
145	0xbd584f90	-0.05281025
146	0x3c0a67df	0.008447616
147	0xbd493287	-0.049120452
148	0xbc17b951	-0.0092604915
149	0xbd9afe58	-0.075680435
150	0x3df15e9c	0.117856234
151	0x3dc802cb	0.09766158
152	0xbd9f90b5	-0.077912726
153	0xbde40da1	-0.11135412
154	0xbde3f5e8	-0.11130887
155	0x3deab656	0.11460559
156	0xba9baff0	-0.0011877995
157	0x3e101613	0.1407092
158	0x3c83aca8	0.01607354
159	0x3e0cd437	0.13752829
160	0x3d1432fa	0.036181428
161	0xbca282fb	-0.019837847
162	0x3d1bc1c2	0.03802658
163	0x3b5d847a	0.0033800886
164	0x3d53c0bc	0.051697478
165	0x3d95d0e0	0.0731523
166	0x3d36feac	0.044676468
167	0xbd2adf0f	-0.04171663
168	0xbe04d1db	-0.12970679
169	0x3d276d76	0.040875874
170	0xbd4b30bf	-0.049607035
171	0x3cbc1148	0.02295746
172	0x3d2df3bf	0.042468783
173	0xbc943a98	-0.018094346
174	0x3c288314	0.010285158
175	0x3bf1d6e0	0.0073803514
176	0x3de065cd	0.10956917
177	0x3d9579d0	0.072986245
178	0x3d50e1b7	0.05099651
179	0xbc8218d0	-0.015880972
180	0xbd524b4d	-0.051341344
181	0xbbbfc71b	-0.0058525926
182	0x3d743646	0.05962207
183	0xbb5e1242	-0.0033885394
184	0x3ca2f2ef	0.01989123
185	0x3cc608f8	0.024174199
186	0x3d25a341	0.040438894
187	0xbb912c8f	-0.0044303606
188	0xbcb3272f	-0.02186927
189	0xbdc5df4f	-0.09661733
190	0xbd8cefba	-0.06881662
191	0xbc44ca43	-0.012011114
192	0x3c9faa81	0.019490482
193	0x3d765059	0.06013522
194	0xbd06b119	-0.032883737
195	0x3c6244a1	0.013810308
196	0xbd4343c1	-0.047672037
197	0xbb872764	-0.004124569
198	0x3d8b464d	0.06800518
199	0xbdb89d34	-0.09014359
200	0xbd93fd2c	-0.07226023
201	0x3e05b984	0.1305905
202	0x3d536499	0.05160961
203	0x3de621a8	0.11236888
204	0x3de5c47b	0.11219116
205	0x3d4cd16a	0.0500044
206	0xbcc5707f	-0.024101494
207	0x3d93506b	0.07193073
208	0x3cd0d584	0.025492437
209	0x3cf69cca	0.03010406
210	0xbd28527e	-0.041094296
211	0xbd35d8d8	-0.04439625
212	0x3b9766da	0.004620415
213	0x3cf1df45	0.029525409
214	0xbc0da157	-0.008644423
215	0x3b655b88	0.0034997184
216	0x3d17ae98	0.03703174
217	0x3d697f15	0.05700596
218	0xbd849ddb	-0.06475421
219	0xbc248854	-0.010042269
220	0xbd924870	-0.071427226
221	0xbc8b62ee	-0.017014947
222	0x3c4dadb4	0.012553621
223	0xbdaeb984	-0.08531478
224	0xbd09cfc7	-0.033645418
225	0xbd1c7dd4	-0.038205937
226	0x3d402334	0.046908572
227	0x3c98f5e4	0.018671937
228	0xbcfa2c81	-0.0305388
229	0xbcb1fb52	-0.021726284
230	0xbd7c5766	-0.061606787
231	0x3c12fd35	0.008971502
232	0xbc3d2b41	-0.011545957
233	0x3dc0b92f	0.09410321
234	0xbd2e3777	-0.042533364
235	0x3dcf869c	0.101330966
236	0xbbf01012	-0.0073261345
237	0x3d83d25d	0.06436608
238	0x3ce9a9de	0.028523382
239	0x3d56b233	0.052416038
240	0xbb6c9982	-0.003610224
241	0x3d04e95b	0.032449108
242	0x3d70139d	0.058612455
243	0xbd9355de	-0.07194112
244	0x3d08008a	0.03320364
245	0x3a17fdf1	0.0005798033
246	0x3c10f7ad	0.008848113
247	0xbdf0a11c	-0.11749479
248	0xbcaa9c80	-0.020826578
249	0x3d65b6ae	0.05608242
250	0x3d1437f9	0.036186192
251	0xbdd9cd4f	-0.10634863
252	0xbd95d810	-0.07316601
253	0x3dcf5562	0.10123707
254	0x3d1658fc	0.036705956
255	0xbdfe635c	-0.12421295

StatefulPartitionedCall/tc_res_net8/conv2d_21/Conv2D_bias f4 [32]
0	0xbdcdebe9	-0.10054762
1	0x3f4ba0c5	0.7954219
2	0xbe4fc9d5	-0.20291837
3	0xbde40278	-0.111332834
4	0x3e166bcf	0.14689563
5	0xbcc97b57	-0.024594946
6	0xbf1671ff	-0.58767694
7	0x3f6abf95	0.9169858
8	0x3ecb3121	0.3968592
9	0x3ec4e7f0	0.38458204
10	0xbf440623	-0.76571864
11	0x3f5a6c84	0.8532183
12	0x3e899e1e	0.26878446
13	0xbbaeef82	-0.00533861
14	0x3f4097de	0.7523173
15	0x3f4fc2df	0.81156725
16	0x3f420e4c	0.75803065
17	0xbf88fa47	-1.0701379
18	0x3d468937	0.048470702
19	0x3f1207e3	0.57043284
20	0xbf9fd8b1	-1.2488004
21	0x3e91be3c	0.2846545
22	0xbed53494	-0.41641676
23	0xbf96e90f	-1.1789874
24	0xbeaa0e04	-0.33213818
25	0x3ed6f659	0.41984823
26	0x3f4f6e17	0.8102736
27	0xbf41ca15	-0.7569898
28	0xbf34a8d8	-0.70570135
29	0x3ef30d17	0.47470924
30	0x3f5a82a2	0.8535558
31	0x3f4f46c9	0.80967385

StatefulPartitionedCall/tc_res_net8/conv2d_22/Conv2D/ReadVariableOp f4 [32, 9, 1, 32]
0	0xbd49be77	-0.049253907
1	0x3e354ee7	0.1770588
2	0xbc6f1281	-0.014591814
3	0x3d14cdbd	0.03632902
4	0xbd5694a6	-0.052387856
5	0xbbea7438	-0.0071549676
6	0x3d3fb27e	0.046801083
7	0x3e13a363	0.14417796
8	0xbd804dc0	-0.0626483
9	0x3da03531	0.078226455
10	0xbdb2b40b	-0.08725747
11	0x3d264d41	0.04060102
12	0xbe351d5e	-0.17686984
13	0x3de1733e	0.11008309
14	0x3cdc359d	0.026881034
15	0x3d43ba37	0.04778501
16	0xbe1e5691	-0.1546271
17	0x3e22175c	0.15829223
18	0xbd884eb0	-0.066556334
19	0x3bb0f7e3	0.005400644
20	0x3ddd3136	0.10800402
21	0x39e1f9f2	0.00043101568
22	0x3cbd55fc	0.02311229
23	0x3da39561	0.07987476
24	0x3dbc81d6	0.09204452
25	0x3cd7cd2a	0.026342947
26	0xbd27fba1	-0.041011456
27	0xbe21b7d8	-0.15792787
28	0x3d62e78d	0.055396605
29	0xbe1a3b12	-0.15061596
30	0x3cd934ac	0.026514374
31	0xbdae6e56	-0.08517139
32	0xbde445b9	-0.11146111
33	0x3e3fb484	0.18721205
34	0x3dab3642	0.08359958
35	0x3dfdd811	0.12394727
36	0x3cca0e00	0.024664879
37	0x3c49cda4	0.012317095
38	0x3dbfa93d	0.093584515
39	0xbb55b77d	-0.0032610588
40	0x3dd004b0	0.10157144
41	0xbd1956a9	-0.03743616
42	0xbcc02df4	-0.023459412
43	0xbdc8474e	-0.09779225
44	0xbd626b81	-0.055278305
45	0x3c348fef	0.011020645
46	0xbdb76142	-0.08954097
47	0x3d03faf6	0.032221757
48	0x3ca0e3e3	0.019639915
49	0x3dd8aff5	0.10580436
50	0xbd12e689	-0.035864387
51	0x3db6803b	0.08911177
52	0xbd9a5929	-0.07536537
53	0xbe181161	-0.1485038
54	0x3c2bb42f	0.010479971
55	0x3dc6dca3	0.09710052
56	0xbd26e9cf	-0.04075032
57	0xbdbbef25	-0.091764726
58	0x3da98331	0.08276976
59	0xbe28bbe1	-0.1647792
60	0xbdce589a	-0.10075493
61	0x3d81facf	0.06346666
62	0xbd9f02a8	-0.077641785
63	0xbe2f4d58	-0.17119348
64	0xbd3d26c2	-0.04617954
65	0x3e197437	0.14985739
66	0x3d5dbad7	0.054133262
67	0x3dec120e	0.11526881
68	0x3dfb6942	0.12275936
69	0xbe0afed2	-0.13573769
70	0xbccb9cf9	-0.024855124
71	0xbd89b5b0	-0.06724107
72	0x3dddf74b	0.10838183
73	0xbd54bce3	-0.05193795
74	0xbddbca16	-0.10731904
75	0xbd5ff09e	-0.05467283
76	0x3cca3c0d	0.024686838
77	0xbcb36d3d	-0.021902675
78	0xbd35d3dd	-0.0443915
79	0xbe14f228	-0.145455
80	0xbd290e56	-0.041273437
81	0xbce606a3	-0.028079337
82	0x3d86d872	0.065842524
83	0xbca6d90e	-0.020367172
84	0x3e2d074b	0.16897313
85	0xbd62fe52	-0.05541832
86	0xbc4b6b63	-0.01241574
87	0x3e137369	0.14399494
88	0xbc2f9e2d	-0.010718864
89	0x3df9ac15	0.12191025
90	0xbd6c57f6	-0.057701074
91	0x3d9c53f6	0.07633202
92	0xbd2acd70	-0.041699827
93	0xbd384f89	-0.044997726
94	0x3d94a4c6	0.072579905
95	0x3e1aab8a	0.151045
96	0x3d64487c	0.05573319
97	0x3cc7b460	0.024378002
98	0x3dc76cf5	0.09737579
99	0x3e2be916	0.16788134
100	0x3ca508ca	0.020145793
101	0xbbe133f3	-0.006872648
102	0xbd33fbdc	-0.043941364
103	0x3d49ddfa	0.04928396
104	0x3e189752	0.14901474
105	0x3d9cebea	0.076621845
106	0xbc9b48f1	-0.01895568
107	0xbdc55061	-0.09634472
108	0x3cacf24f	0.021111635
109	0xbbc6f5e8	-0.006071795
110	0x3e2c9cbe	0.16856667
111	0xbde20487	-0.1103602
112	0xbda6403f	-0.08117723
113	0x3e0121a8	0.12610495
114	0xbdeafd68	-0.11474115
115	0xbc7aea10	-0.015314594
116	0xbdb6e6b1	-0.0893072
117	0x3d21117e	0.039323322
118	0xbd7c9357	-0.06166395
119	0x3c7179de	0.014738528
120	0xbb900bfd	-0.0043959604
121	0xbda5a38c	-0.08087835
122	0x3c3b33e7	0.011425949
123	0xbd5950ad	-0.053055454
124	0xbdbf2a5c	-0.09334251
125	0xbd66b2b0	-0.056322753
126	0x3d037b95	0.03210028
127	0xbdbe5b7e	-0.092947945
128	0xbd89c58b	-0.067271315
129	0xbcfb6bd7	-0.03069107
130	0xbbd6196d	-0.0065337927
131	0x3d192b1b	0.037394624
132	0xbde14f72	-0.11001481
133	0x3ca86b5f	0.020559011
134	0x3d2a27c6	0.041541837
135	0xbd434ca8	-0.047680527
136	0x3c824cda	0.015905786
137	0xbc3fdb4d	-0.01171
138	0xbd189e47	-0.03726032
139	0x3c217535	0.0098546045
140	0xbd45ee2d	-0.048322845
141	0xbd219ce5	-0.039456267
142	0xbd26ee8a	-0.040754832
143	0x3d58fd13	0.052975725
144	0x3da2b3bc	0.07944438
145	0xbd5b3f81	-0.05352736
146	0x3c4c9448	0.012486525
147	0x3da441e8	0.08020383
148	0xbc2983bb	-0.010346348
149	0xbd91c4c9	-0.07117612
150	0x3ddb8e08	0.1072045
151	0xbd001612	-0.031271048
152	0x3e1496ec	0.14510697
153	0xbde6cc7f	-0.11269473
154	0x3c112b43	0.008860412
155	0xbccc4449	-0.024934905
156	0xbe17db04	-0.14829642
157	0xbe34cba7	-0.17655812
158	0x3cfb3ea8	0.030669525
159	0xbdc27898	-0.09495658
160	0xbd49a5b4	-0.049230292
161	0x3d8bec97	0.06832235
162	0x3e10bf06	0.1413537
163	0x3c88298e	0.016621377
164	0x3d764889	0.06012777
165	0x3caabdc1	0.020842435
166	0xbda3e39b	-0.08002397
167	0xbd8dd962	-0.06926228
168	0xbddd825e	-0.10815881
169	0x3d485374	0.048907712
170	0x3e0ccfaf	0.137511
171	0x3d5ba431	0.053623382
172	0xbd41d3d1	-0.047321144
173	0x3dfb3eee	0.12267862
174	0xbd5028fe	-0.050820343
175	0x3dd1f5bd	0.10251949
176	0xbd8405d7	-0.06446426
177	0xbe40266d	-0.18764658
178	0xbe56d928	-0.20981276
179	0xbddafb49	-0.1069246
180	0xbdb30863	-0.08741834
181	0xbc841e1a	-0.016127635
182	0x3c91f688	0.01781775
183	0x3dcc4d8d	0.09975729
184	0xbc665e55	-0.014060576
185	0x3cffd77c	0.03123068
186	0xbde9eaae	-0.11421715
187	0xbe2373f4	-0.15962201
188	0x3df08ca0	0.11745572
189	0x3cba08f4	0.022709347
190	0x3c407405	0.011746411
191	0x3bea3c6d	0.0071483166
192	0xbcd4e2b8	-0.025987014
193	0xbd4d4056	-0.050110184
194	0xbd3e9b74	-0.04653497
195	0x3d541ca6	0.051785134
196	0x3d812f1c	0.063078135
197	0x3dadf926	0.08494787
198	0xbd31cd14	-0.04340847
199	0xbde6fc12	-0.11278547
200	0xbd737d03	-0.059445392
201	0xbd234b27	-0.039866593
202	0x3d8dc483	0.06922247
203	0xbde02333	-0.10944214
204	0xbdc48fce	-0.09597741
205	0xbd065fd0	-0.032806218
206	0x3d36ad74	0.04459901
207	0xbb95993e	-0.004565387
208	0xbd99578a	-0.074874
209	0x3db302b2	0.087407485
210	0xbd0f38a0	-0.03496611
211	0xbd467511	-0.048451487
212	0xbe25c9e0	-0.1619029
213	0xbd2c0841	-0.04200006
214	0x3d8aaf67	0.067717366
215	0xbb83f893	-0.004027435
216	0xbd546392	-0.05185277
217	0x3d8bc434	0.06824532
218	0xbcfd2444	-0.030901082
219	0x3da3797d	0.079821564
220	0xbdc2797a	-0.09495826
221	0xbd987260	-0.0744369
222	0x3d6977be	0.05699896
223	0xbc7b616d	-0.015343052
224	0xbd97921a	-0.074009135
225	0x3d0d5f82	0.03451491
226	0xbcca1ab5	-0.024670938
227	0x3dbcd86a	0.09220965
228	0x3e079cfd	0.1324348
229	0xbdc3c5a1	-0.09559179
230	0x3dbfa5c8	0.09357792
231	0x3e00b409	0.12568678
232	0x3cc2231b	0.02369838
233	0xbdf1ddb1	-0.118098624
234	0xbcd37ad1	-0.0258154
235	0xbd447256	-0.0479606
236	0xbd8d0269	-0.06885225
237	0xbd9ff1ed	-0.078098156
238	0x3e28add8	0.16472566
239	0x3e25fc2b	0.16209476
240	0xbdc25bb6	-0.09490149
241	0xbe045990	-0.1292479
242	0x3e1715f5	0.1475447
243	0xbd8002dc	-0.062505454
244	0xbd9a4112	-0.075319424
245	0xbde5ead1	-0.11226428
246	0xbcd18716	-0.02557711
247	0x3e14709c	0.14496082
248	0x3e1aabd7	0.15104614
249	0xbcc67797	-0.024226947
250	0xbd79a5c3	-0.0609491
251	0x3dae522c	0.08511767
252	0xbda1aa76	-0.07893841
253	0xbd0d65d7	-0.03452095
254	0x3d3f9afb	0.04677866
255	0x3d799bff	0.060939785

StatefulPartitionedCall/tc_res_net8/conv2d_22/Conv2D_bias f4 [32]
0	0x3e938bd2	0.28817612
1	0xbe6b5d11	-0.22984721
2	0xbfa43909	-1.2829906
3	0xbebf3787	-0.37347052
4	0x3f3135c9	0.69222695
5	0x3e8e1e74	0.2775761
6	0x3df5e3d2	0.12006344
7	0x3ebf4cdf	0.37363335
8	0xbf003051	-0.50073725
9	0xbf082dc0	-0.5319481
10	0xbe87eed3	-0.26549396
11	0x3f503982	0.8133775
12	0xbec8d007	-0.39221212
13	0x3f12bdf3	0.5732109
14	0x3f2b0e75	0.66818935
15	0x3e2a27a2	0.16616681
16	0x3f9f3070	1.2436657
17	0xbe8a1e6e	-0.2697634
18	0xbd3e7b60	-0.04650438
19	0x3e0bc964	0.13651043
20	0x3f58ba2f	0.84659094
21	0xbe985991	-0.29755834
22	0x3e0a2371	0.13490082
23	0x3e6d2733	0.23159485
24	0x3ed61e4e	0.41819996
25	0x3f41aed8	0.75657415
26	0x3f1ab94e	0.60439
27	0x3f2fe77e	0.68712604
28	0x3ceef683	0.02917028
29	0x3f6b39c3	0.9188501
30	0x3f0d108b	0.5510337
31	0xbf394d50	-0.72383595
